app/data/feed_model.pth (torch, 6692 bytes, 7 tensors)

weight f4 [24, 3]
0	0x3e5f9e00	0.21837616
1	0x3e92fdb2	0.2870918
2	0x410b3fb8	8.703056
3	0x3f223778	0.6336589
4	0x3d4fd15d	0.050736774
5	0x4112b214	9.168476
6	0x3f55421e	0.8330401
7	0xbe5ddc25	-0.2166601
8	0x410c1a06	8.756353
9	0x3f32fdb1	0.6991835
10	0x3ede8893	0.43463573
11	0x410ef7b0	8.935471
12	0x3f5763a7	0.8413643
13	0x3d8e395a	0.06944533
14	0x411448a3	9.267734
15	0xbe1993d2	-0.14997795
16	0xbda42510	-0.080148816
17	0xbd7d24b0	-0.061802566
18	0x3f0bc7ba	0.54601634
19	0xbe541601	-0.20711519
20	0x410aff5b	8.687343
21	0x3b6bdd31	0.0035989995
22	0xbe73ce18	-0.23809087
23	0xbe58b7b5	-0.21163829
24	0x3f56e043	0.83935946
25	0x3f1c5c09	0.61077935
26	0x4107d26e	8.488874
27	0xbe1d890e	-0.15384313
28	0xbeb0f582	-0.34562308
29	0x3ea06b70	0.31331968
30	0xbed92a8e	-0.4241528
31	0xbe58459a	-0.21120301
32	0xbe037e68	-0.12841189
33	0x3e3079a1	0.17233898
34	0x3e45efb1	0.19329716
35	0x41148d15	9.284444
36	0x3f4f21dc	0.8091104
37	0xbe6cd839	-0.23129357
38	0x4110dd1e	9.053984
39	0x3eeba143	0.4602147
40	0xbe4c62ab	-0.19959514
41	0x410cc771	8.798692
42	0xc0ac92f1	-5.392937
43	0x4069c88b	3.6528652
44	0x410d8a5d	8.84628
45	0xbf08cf6a	-0.5344149
46	0xbf033590	-0.51253605
47	0x3e52f104	0.20599753
48	0xbf0f7716	-0.56041086
49	0xbea2a86e	-0.31769127
50	0x3e367dbc	0.17821401
51	0xbdc857f0	-0.09782398
52	0xbf0133e2	-0.5046979
53	0xbdf5c970	-0.12001312
54	0x3f03affe	0.5144042
55	0xbe5ecb90	-0.2175734
56	0x410c43c4	8.766544
57	0xbd9cae84	-0.07650474
58	0x3f2482fa	0.64262354
59	0x40fb8dca	7.861058
60	0x3f6e9b90	0.9320612
61	0xbd3fc0ca	-0.046814717
62	0x410c1745	8.755681
63	0x3de00fa5	0.10940484
64	0x3edca0d2	0.43091446
65	0x41120078	9.125114
66	0x3f13f5b5	0.57796794
67	0xbe2d208b	-0.16906945
68	0x410c07e7	8.751929
69	0x3f17a47f	0.59235376
70	0x3e355094	0.1770652
71	0x41139dd6	9.226034

bias f4 [24]
0	0x40943ec2	4.632661
1	0x409e92a7	4.955402
2	0x40981a57	4.7532153
3	0x4077f34e	3.8742251
4	0x4075286a	3.8305917
5	0x3e9cf9bc	0.30659282
6	0x408cff9f	4.4062037
7	0xbee0a989	-0.43879345
8	0x4097fea6	4.749835
9	0xbe90bb21	-0.28267768
10	0x3ee14f5c	0.4400586
11	0x40807948	4.014805
12	0x409ab750	4.834877
13	0x40819260	4.049118
14	0x40fd45bd	7.914763
15	0xbe545e5a	-0.20739117
16	0x3d850000	0.064941406
17	0x3e20fec0	0.1572218
18	0x408fee4c	4.497839
19	0x40aca195	5.3947244
20	0x4084fe21	4.1560216
21	0x408227c5	4.0673547
22	0x40791b0f	3.8922765
23	0x40852f6f	4.16204

weight f4 [12, 24]
0	0xbe0983f2	-0.1342924
1	0xbe12d8ec	-0.14340562
2	0xbe3a3a82	-0.18186381
3	0xbe009ab3	-0.12559013
4	0x3e2cdb7c	0.16880602
5	0x3de48be0	0.111594915
6	0x3c3f9430	0.0116930455
7	0xbde4cf1f	-0.11172318
8	0xbd928aca	-0.07155378
9	0x3dd29da0	0.10283971
10	0x3bf48d20	0.0074631125
11	0x3e095094	0.13409644
12	0xbe034afb	-0.12821572
13	0xbde6f948	-0.112780154
14	0xbdf9acdf	-0.12191176
15	0xbdf9535d	-0.121741034
16	0xbe4b9c36	-0.19883808
17	0xbe142c6b	-0.14470069
18	0xbe361da2	-0.17784742
19	0x3da805c0	0.08204222
20	0xbe004f4c	-0.1253025
21	0xbdbe9563	-0.09305837
22	0x3da7fb30	0.08202207
23	0xbe3da563	-0.18520121
24	0x3f66ac53	0.90106696
25	0x3f36a45e	0.71344554
26	0x3e9f0ba9	0.31063583
27	0x3f245567	0.64192814
28	0x3ee774e6	0.45206374
29	0xbe4cbc28	-0.19993651
30	0x3f28914a	0.65846694
31	0xbdbff33a	-0.09372564
32	0x3ea9bea4	0.3315326
33	0x3d0aebc4	0.03391625
34	0x3d909ad8	0.07060784
35	0x3f48fdac	0.7851207
36	0x3f3b34a7	0.73127216
37	0x3f38b4a4	0.72150636
38	0x40ba4cf5	5.821894
39	0xbe36618e	-0.17810652
40	0x3e2ef9a2	0.17087415
41	0x3d04cecc	0.03242378
42	0x3f0b1cd8	0.5434089
43	0x400bfd24	2.1873255
44	0x3f17e37e	0.593315
45	0x3f734a96	0.95035684
46	0x3f3f51d9	0.74734265
47	0x3f0dc88d	0.5538414
48	0xbde55db1	-0.11199511
49	0xbda8998a	-0.0823241
50	0x3e07ee07	0.13274394
51	0xbe725e37	-0.23668753
52	0xbe245902	-0.16049579
53	0xbd84a214	-0.064762264
54	0xbe4e1c92	-0.20128086
55	0xbd29d814	-0.041465834
56	0x3d8aa43a	0.06769605
57	0x3e33d4d2	0.17561653
58	0xbd421ee4	-0.04739274
59	0xbd9b2fba	-0.075774625
60	0x3e41f07a	0.18939391
61	0x3cc558e8	0.024090245
62	0x3d608a94	0.05481966
63	0xbdb147ad	-0.08656249
64	0x3e14401e	0.14477584
65	0xbe3453e7	-0.17610131
66	0x3b186080	0.0023250878
67	0x3dd468d5	0.103715576
68	0xbe609259	-0.21930827
69	0xbe391572	-0.18074587
70	0x3cc33c3f	0.023832439
71	0x3ba5a101	0.0050545936
72	0x3f78e620	0.9722614
73	0x3f02472e	0.5088986
74	0x3eb32679	0.3499029
75	0x3f258c77	0.6466746
76	0x3f11a5f8	0.56893873
77	0x3d254e28	0.04035774
78	0x3f0d66d8	0.5523505
79	0x3c8b3b91	0.016996177
80	0x3ee62529	0.44950226
81	0xbe29ed67	-0.16594468
82	0x3e0e4ecc	0.13897246
83	0x3f9386f1	1.1525556
84	0x3f17929a	0.5920807
85	0x3ec605ec	0.38676393
86	0x40c538b4	6.163172
87	0xbde29cb6	-0.110650465
88	0xbe4e8795	-0.20168908
89	0xbe1e46d6	-0.1545671
90	0x3f2d8dfc	0.67794776
91	0x4018d038	2.3877087
92	0x3edb56a7	0.42839548
93	0x3f8635a8	1.0485125
94	0x3f21a55c	0.63142943
95	0x3f293f72	0.66112435
96	0x3f6d2a4c	0.92642665
97	0x3f28a713	0.65879935
98	0x3f19b3d0	0.6004
99	0x3f08d1d0	0.5344515
100	0x3f2015d6	0.6253332
101	0x3de85c20	0.113456964
102	0x3f25e670	0.64804745
103	0x3c30fedf	0.0108029535
104	0x3e9ced61	0.30649856
105	0x3e05e732	0.13076475
106	0x3e000f34	0.125058
107	0x3f7b1671	0.9808112
108	0x3f1cc07d	0.61231214
109	0x3f177298	0.5915923
110	0x40bcbcf7	5.898067
111	0xbd2c8814	-0.04212196
112	0x3cd7c7a0	0.026340306
113	0x3e19542a	0.14973512
114	0x3eff9fc9	0.49926594
115	0x40176b2b	2.365916
116	0x3f085463	0.53253764
117	0x3f8b49da	1.0881913
118	0x3f39f8de	0.72645366
119	0x3f212c13	0.62957877
120	0x3f6e7756	0.9315084
121	0x3eec301f	0.46130463
122	0x3f0ad994	0.5423825
123	0x3f1a6345	0.60307723
124	0x3ec48480	0.3838234
125	0xbd83f24a	-0.06442697
126	0x3f439b42	0.7640878
127	0x3da5e27c	0.08099839
128	0x3ed6fd5d	0.41990176
129	0xbda967bc	-0.08271739
130	0x3ca7b248	0.020470753
131	0x3f85c4e2	1.0450709
132	0x3ee2e14e	0.4431252
133	0x3efffa3d	0.49995604
134	0x40c476e7	6.1395144
135	0xbd71461c	-0.058904752
136	0x3cbd0d10	0.023077518
137	0x3d761940	0.060082674
138	0x3f06be73	0.5263435
139	0x4021cb7b	2.5280445
140	0x3f0be1ca	0.546414
141	0x3f6f9d65	0.9359954
142	0x3f0d44c6	0.55183065
143	0x3f23fd9a	0.6405884
144	0x3f77e12e	0.9682797
145	0x3efff4e4	0.49991524
146	0x3eff2339	0.4983156
147	0x3ed2e01b	0.41186604
148	0x3eaaf59d	0.33390513
149	0xbd9f674e	-0.07783376
150	0x3f1713d5	0.59014636
151	0xbd440271	-0.04785389
152	0x3f03f816	0.51550424
153	0xbc1f0490	-0.009705678
154	0xbdf44d7c	-0.119288415
155	0x3f8b2715	1.0871302
156	0x3f0bff48	0.54686403
157	0x3f274a97	0.6534819
158	0x40bb582d	5.8545136
159	0x3e1633a4	0.14668137
160	0x3dda6d30	0.10665357
161	0x3b8327a0	0.0040025264
162	0x3ee64943	0.4497777
163	0x40217911	2.5230143
164	0x3ec47ca6	0.3837635
165	0x3f8dc1ce	1.107477
166	0x3f05efba	0.5231892
167	0x3f079e21	0.5297566
168	0x3f3acc63	0.7296812
169	0x3f2ff185	0.68727905
170	0x3f19e743	0.601185
171	0x3f2acd1b	0.66719216
172	0x3f1a193b	0.6019475
173	0x3e01599c	0.1263184
174	0x3f34ab10	0.7057352
175	0x3d96c2eb	0.073613964
176	0x3f110b91	0.56658274
177	0xbe2f2ca9	-0.1710688
178	0xbd1acef0	-0.037795007
179	0x3f6a0764	0.9141753
180	0x3f0e3a97	0.5555815
181	0x3f475dc2	0.7787744
182	0x40c6500a	6.1972704
183	0x3e145478	0.14485347
184	0xbced2250	-0.028947026
185	0x3dddec88	0.108361304
186	0x3f27091a	0.6524826
187	0x400e98b1	2.2280695
188	0x3e941786	0.28924197
189	0x3f896e43	1.0736774
190	0x3ef66599	0.48124388
191	0x3f3a15c8	0.72689486
192	0x3c13a688	0.009011872
193	0xbee1759d	-0.44035044
194	0xbf97c98d	-1.1858383
195	0xbb85c3c1	-0.0040821736
196	0xbed9bc6d	-0.4252657
197	0x3e23c9ca	0.15994945
198	0xbfbac000	-1.4589844
199	0x3e0c1396	0.13679346
200	0x3ef75317	0.4830558
201	0xbe1e17e8	-0.15438807
202	0xbd325330	-0.043536365
203	0xbda8113a	-0.08206411
204	0xc006a986	-2.104097
205	0xbfe9079c	-1.8205447
206	0x3f64ab49	0.8932386
207	0x3dc605cc	0.096690744
208	0xbda49f6c	-0.0803822
209	0x3dfd9304	0.12381557
210	0xc00dcba5	-2.2155545
211	0x3e1b59c8	0.15170968
212	0xbedcde8e	-0.43138546
213	0x3d4ccbba	0.049998976
214	0xbf75dd56	-0.96040857
215	0xbe1a8b08	-0.15092099
216	0xbe28ce84	-0.1648503
217	0x3df06cd7	0.117395096
218	0x3e012e7e	0.12615392
219	0xbdb02713	-0.08601203
220	0x3da4c22a	0.08044846
221	0xbdc3a51d	-0.09552977
222	0xbd1287e7	-0.035774138
223	0x3d5732a9	0.052538548
224	0x3cecf1b4	0.028923847
225	0xbda25e4c	-0.07928142
226	0xbc8f64d0	-0.017504126
227	0xbde28612	-0.11060728
228	0xbd0ef69c	-0.034903154
229	0x3d415d91	0.047208373
230	0xbc414422	-0.011796029
231	0xbdc75f13	-0.09734931
232	0xbdbc83fd	-0.09204862
233	0x3d36e090	0.044647753
234	0xbe065d04	-0.1312142
235	0x3d8065db	0.062694274
236	0xbe289914	-0.16464645
237	0x3dd1ca3a	0.1024365
238	0x3e06cb70	0.13163543
239	0xbda36ed9	-0.07980127
240	0x3f5ab662	0.85434544
241	0x3f2f701a	0.6853043
242	0x3f2a87e3	0.66613597
243	0x3ea63dd1	0.32469037
244	0x3ea68c5e	0.32528967
245	0xbe435019	-0.19073524
246	0x3f3e56dd	0.7435129
247	0xbe1410a9	-0.1445948
248	0x3f27cbcf	0.6554536
249	0xbe11e935	-0.14249118
250	0xbcf5b780	-0.029994726
251	0x3f9153b4	1.1353669
252	0x3eeed979	0.46650293
253	0x3f3f59b8	0.74746275
254	0x40ba23ff	5.816894
255	0x3cfc8a58	0.030827686

bias f4 [12]
0	0xbe477bfc	-0.1948089
1	0x4084ee89	4.154118
2	0x3cc316af	0.023814527
3	0x408b14bc	4.346281
4	0x408d5ff4	4.417963
5	0x408c1962	4.3780985
6	0x408e86bb	4.4539466
7	0x4083885e	4.1103964
8	0x3f28deae	0.6596478
9	0xbe71cbdf	-0.23612927
10	0x408e771a	4.452039
11	0x408c8552	4.3912745

weight f4 [6, 12]
0	0xbd0f9fa0	-0.03506434
1	0x3f345080	0.70435333
2	0x3e42274d	0.18960305
3	0x3f840762	1.0314753
4	0x3f6cf647	0.9256329
5	0x3f98e48c	1.1944747
6	0x3fa43ac8	1.2830439
7	0x3f4ba555	0.7954915
8	0xc08cf73b	-4.4051795
9	0xbdc963e2	-0.09833504
10	0x3f6d6844	0.9273722
11	0x3f542ba9	0.8287912
12	0x3d599910	0.053124487
13	0xbe745168	-0.23859179
14	0xbe4bafea	-0.19891325
15	0xbd186d9f	-0.037213918
16	0x3e5e03e8	0.21681178
17	0xbcee86be	-0.029116984
18	0xbe8d6938	-0.27619338
19	0x3b4ab3da	0.0030929954
20	0x3c1cb5e0	0.009564847
21	0x3e349d48	0.17638123
22	0xbcd502c2	-0.026002292
23	0xbe3ac21f	-0.18238114
24	0xbe4ef28b	-0.2020971
25	0xbdc67f5e	-0.09692262
26	0x3e24b18e	0.16083357
27	0xbe85b32a	-0.26113254
28	0xbe834840	-0.2564106
29	0x3df75461	0.12076641
30	0x3e4bff00	0.19921494
31	0x3e2d876f	0.16946195
32	0xbe7925e3	-0.24330859
33	0xbde0b4cc	-0.10971984
34	0xbdcb9bc1	-0.09941817
35	0x3e0db158	0.13837183
36	0xbe82e0c0	-0.25562096
37	0xbe7ceda9	-0.24700035
38	0xbdd6a00a	-0.10479744
39	0x3b0a2800	0.002108097
40	0xbc66aba0	-0.0140790045
41	0x3ca645a0	0.020296872
42	0x3e81f296	0.2538039
43	0xbe4a35b4	-0.19747049
44	0xbe718ba1	-0.2358842
45	0xbdf61f10	-0.120176435
46	0xbe81f0d8	-0.25379062
47	0x3e5c3870	0.21505904
48	0x3dd03c4c	0.10167751
49	0xbe59db4e	-0.21275064
50	0x3d080880	0.03321123
51	0xbb977100	-0.004621625
52	0xbdd22240	-0.10260439
53	0x3e8a091c	0.26960075
54	0x3e3f4c70	0.18681502
55	0xbde9074a	-0.113783434
56	0x3d299c00	0.04140854
57	0xbe101231	-0.1406944
58	0xbe858695	-0.2607924
59	0xbd9de8b2	-0.07710399
60	0xbc3781c0	-0.011200368
61	0x3f8af90c	1.0857253
62	0x3e416154	0.18884784
63	0x3f693eec	0.91111636
64	0x3f7e7e80	0.99411774
65	0x3fa480a1	1.2851754
66	0x3fa3d733	1.2800049
67	0x3f96217c	1.1728969
68	0xc08da113	-4.4259124
69	0xbe0820d2	-0.1329377
70	0x3f87884d	1.0588471
71	0x3f7f7a5e	0.9979609

bias f4 [6]
0	0x408c4482	4.383363
1	0xbd78959c	-0.060689554
2	0xbce2c149	-0.027680056
3	0x3df04954	0.11732736
4	0x3d362e00	0.044477463
5	0x40866897	4.2002673

weight f4 [1, 6]
0	0x3fa38267	1.2774171
1	0xbd40b30d	-0.047045756
2	0xbe3c4e0d	-0.18389149
3	0xbe0c760a	-0.13716903
4	0x3eb53bde	0.35397238
5	0x3f94b760	1.1618462
